model_params.pkl (torch, 4991 bytes, 5 tensors)

lstm.weight_ih_l0 f4 [40, 6]
000000 7a 83 34 3d a1 02 6f 3e 6c 39 47 3d ee 07 48 3e
       0.0440707 0.23340847 0.048638746 0.19534275
000010 10 2b fc 3d 2b 9c 9a 3f 9b 49 af 3e 91 34 51 bc
       0.12312901 1.2078909 0.34235844 -0.01276888
000020 c2 31 aa 3e 82 d6 16 3f 9d d8 47 3f 54 f1 85 3f
       0.33241087 0.5892106 0.780649 1.0464272
000030 52 f7 1d 3e 9e 3f da 3e 40 44 7c 3f e4 b6 7b 3f
       0.15426376 0.4262666 0.9854164 0.98325944
000040 16 18 a9 3f b6 22 9c 3e 71 70 13 3f d9 65 1f 3f
       1.3210475 0.30495232 0.57593447 0.6226478
000050 f8 58 3f 3f cb a1 03 3c 11 70 fa 3d b1 f1 b2 3e
       0.7474513 0.00803418 0.12228406 0.3495002
000060 26 02 9d 3e 83 c4 1e 3e 31 c0 c2 3e 64 46 3c be
       0.30665702 0.15504651 0.38037255 -0.18386227
000070 4e 67 93 3e 29 48 3e bc 3a fe 38 bd 08 7c 64 3e
       0.28789753 -0.011613884 -0.045164324 0.22312939
000080 d2 20 25 3c 69 5d aa 3d 5a 14 21 bd c7 92 ba bf
       0.010078626 0.08318598 -0.03932605 -1.4576043
000090 a3 1c d2 3e 53 ea f1 3d 03 e4 e0 3e 20 4b 6f 3e
       0.41037473 0.11812272 0.4392396 0.23368502
0000a0 61 35 d2 3e 73 e1 d6 3e 55 85 95 3d 0a 61 96 3e
       0.4105635 0.4196888 0.07300822 0.2937091
0000b0 a6 2b cd 3e 7e 27 ed 3e f5 2e cc bd 7d 7c b1 3e
       0.40072364 0.46319193 -0.09969894 0.3466529
0000c0 92 21 1a be 1e c9 2a bd 8c ed eb 3d 35 b2 68 3e
       -0.15051869 -0.041695707 0.11519918 0.2272423
0000d0 7a da 17 3f ae 16 10 3f 90 5a 8e 3f 51 6e 4e 3f
       0.59317744 0.56284606 1.1121387 0.8063708
0000e0 a8 bb 46 3f c8 be a6 3e c0 ec 0d bd f6 bd 08 3c
       0.7763009 0.3256743 -0.03464961 0.0083460715
0000f0 bf b6 64 be a6 a2 5e be 8b cd f9 3e 77 c6 07 bd
       -0.22335337 -0.21741733 0.4878963 -0.033148255
000100 0a da e8 be 16 43 87 40 23 34 50 be f1 01 1d 3f
       -0.4547885 4.226939 -0.20332389 0.6133109
000110 f9 58 be 3e 87 71 80 3e e3 4e 85 3e 93 e1 3c 3f
       0.37177256 0.25086614 0.26036748 0.737817
000120 f0 f2 b0 3e 99 a2 f3 3d d7 d7 ac 3e 0f 70 fc 3c
       0.34560347 0.118962474 0.33758423 0.030815152
000130 f3 ef f0 3e d7 db 0c 3e 87 24 8b 3f fb cf a8 3f
       0.47058067 0.13755737 1.0870522 1.3188471
000140 b1 9b 69 3f b7 3c 84 3f d2 61 b1 be b5 56 21 bf
       0.9125319 1.0331029 -0.34644943 -0.6302293
000150 fb 81 9b 3e ed 06 63 3d 4b 88 bd 3d 8b 9a 8b 3b
       0.30372605 0.055426527 0.092545114 0.0042603663
000160 1f 56 8b bc f3 00 20 3e bc a9 63 3e 39 96 04 3e
       -0.01700884 0.15625362 0.22232717 0.1294793
000170 3b 06 cf be b9 b8 67 bb be 95 36 bf 77 30 f3 bf
       -0.4043444 -0.0035357906 -0.7132224 -1.8999165
000180 a0 46 04 3d ba 5b 90 3e c5 4a 12 be 23 98 81 3d
       0.032293916 0.28194982 -0.14286335 0.06327846
000190 59 5d a2 3d ee 1d 95 3e 74 55 64 3e 78 84 a4 3e
       0.07927961 0.29124397 0.22298223 0.32132316
0001a0 dd fa 9d be 32 53 27 bd c7 55 9a 3e 23 c7 23 3f
       -0.30855456 -0.040850826 0.30143568 0.63975734
0001b0 1d 4a cf bd b5 9b 45 3e c4 00 ba 3e eb b7 02 bd
       -0.10121558 0.19297679 0.3632871 -0.03191368
0001c0 4f b9 2a 3e a7 54 68 bc 6e ca f7 bc 30 4f 4d 3d
       0.16672252 -0.014180339 -0.030247893 0.050124347
0001d0 d5 3e 6f 3e c7 e5 87 3e 2f 37 20 be 8d f3 6b 3e
       0.23363812 0.26542494 -0.15646051 0.23042126
0001e0 a5 f3 3b 3c 4e 8b ed be e0 58 4d be d8 22 c7 be
       0.011471664 -0.46395344 -0.20053434 -0.3889377
0001f0 80 3e ab be 1a 91 e8 be f4 7e bf 3e 5e 4d 8c 3e
       -0.3344612 -0.45423204 0.37401545 0.27402776
000200 17 dc ab be d0 a0 94 3e 9c 38 58 3f b2 80 d6 3f
       -0.33566353 0.2902894 0.8446138 1.6758025
000210 ae 26 35 be 6b d0 26 bf 82 f6 c9 bf d1 a2 cd bf
       -0.17690536 -0.6516177 -1.5778353 -1.6065313
000220 89 3b 93 bf 50 c7 9f bd 4b 6a 25 be 79 59 67 bc
       -1.1502544 -0.07801688 -0.16153829 -0.014120453
000230 15 e9 af be 62 d6 88 be eb 34 8f bd dc 6d c6 be
       -0.34357515 -0.2672606 -0.06992515 -0.3875569
000240 8a 09 57 3f 3b 87 74 3f 6c fa d1 3e a5 61 da bd
       0.8399893 0.95518845 0.4101137 -0.106631555
000250 30 86 bc 3e 87 1b ec 3d d6 53 91 be 62 0f f7 be
       0.36821127 0.11528688 -0.28384274 -0.48253924
000260 1d 29 8e 3e d0 06 c4 be fd cc 0c bf 5b cf 82 bb
       0.27765742 -0.38286448 -0.5500029 -0.003992004
000270 cd 87 33 bf b6 95 11 bf 5a fd 8b bf 7a e5 4a bf
       -0.7012909 -0.56869066 -1.0936692 -0.79256403
000280 56 4e 46 be a7 fd 63 be 4a db 2a bf 86 07 15 bf
       -0.1936582 -0.2226473 -0.6674086 -0.58214605
000290 16 2a 07 bf 38 66 f8 be bd 80 30 be 11 7f 2a be
       -0.52798593 -0.48515487 -0.1723661 -0.16650034
0002a0 cd 0e 11 3f df 8b ac 3e 51 f1 fd 3e 50 8c f6 3b
       0.5666321 0.33700463 0.49598172 0.007524051
0002b0 71 c1 54 3a 3a e2 b7 3e 32 66 44 bf 27 df 48 bf
       0.0008115983 0.35914785 -0.7671844 -0.78465503
0002c0 51 9f b8 be 68 71 8b be b1 b0 94 bd ca 7e e2 bd
       -0.3605905 -0.2723496 -0.07260264 -0.11059339
0002d0 a3 5a 20 3b 1e 14 18 3f f8 26 7c 3f ed 0c 6e 3f
       0.0024468086 0.59405696 0.9849696 0.92988473
0002e0 4c 11 bf 3c f2 c7 04 be 72 75 3e 3d 20 e0 10 be
       0.023323677 -0.12966898 0.046498723 -0.14147997
0002f0 f4 ee 26 3d 8f 51 ae bd 8f 03 c2 bd b7 85 56 3f
       0.040755227 -0.0851165 -0.09473335 0.8379778
000300 f9 7a f8 bc fc ea 5d 3d 82 71 51 bc 2f 6b a9 3c
       -0.030332075 0.054179177 -0.01278341 0.020680992
000310 cf 66 63 3c c9 e3 07 bf 77 90 a2 3d 5c e8 d4 bd
       0.013879492 -0.5308195 0.07937711 -0.103958815
000320 97 08 fb bc 98 f3 a7 bd 7e 4c 2f bd 06 6d 35 3f
       -0.030643744 -0.08200759 -0.042797558 0.7086948
000330 d9 c1 0b bd 78 d4 52 be fc b1 a1 bd 9b 6a 83 be
       -0.034120414 -0.20588863 -0.07895276 -0.2566727
000340 3f 42 90 be 3a 10 d9 3e b9 54 04 3f 14 79 e7 3f
       -0.28175542 0.42395192 0.51691777 1.8083825
000350 3d 2c 38 3f cd 10 ec 3f 77 ba 73 3f d2 54 22 bf
       0.719425 1.8442627 0.952064 -0.63410676
000360 95 77 e6 3b 7e 53 0d bc d4 8f 6a bc b3 a9 ca bc
       0.0070332983 -0.008625863 -0.014316518 -0.024739122
000370 84 a6 99 bd 99 59 e5 3e 89 b5 74 3d 83 5a eb bd
       -0.075024635 0.4479492 0.059743438 -0.11491873
000380 9c ed 34 ba e5 0b c7 bd 8a c4 e3 bd a3 74 1f 3f
       -0.00069018616 -0.097190656 -0.11121471 0.6228735
000390 1a df 0b be ee c1 b9 be 47 cd dc bd 08 0e d7 be
       -0.13659325 -0.3628077 -0.10781341 -0.42002892
0003a0 65 0e 9d be a7 eb 7c 3e 89 3f 9d ba 77 56 a7 bd
       -0.30675045 0.24699269 -0.0011997084 -0.08170789
0003b0 ba 66 94 3c 10 78 76 bd 60 c9 cd bd 36 53 ef 3e
       0.01811539 -0.060173094 -0.10048175 0.46743172

lstm.weight_hh_l0 f4 [40, 10]
000000 5d 23 5b bf c2 4f 38 3f e1 e9 8b bf 3a 57 85 be
       -0.85600835 0.719967 -1.0930749 -0.2604311
000010 e9 b0 b7 3e 00 1c 55 c0 3f 1d 96 be eb 36 f5 bd
       0.3587716 -3.329834 -0.29319188 -0.119733654
000020 ee a0 87 3f ac 1a c5 be 04 72 8d 3f 9b 7e a3 bf
       1.0595987 -0.38496912 1.105042 -1.2773012
000030 2b 1a 24 3e 3b 3a ba 3f 30 20 25 3e a2 ba 89 bf
       0.16025607 1.454902 0.1612556 -1.0760081
000040 f2 a0 0a 3f b4 fd a6 3f cf 32 34 3e 4e 07 05 3f
       0.54151833 1.3046174 0.17597507 0.5196427
000050 8c 21 d7 bf 01 7c 97 3f 00 d9 81 bf f3 82 34 bf
       -1.6807113 1.1834718 -1.0144348 -0.7051231
000060 d2 16 1d 3f f3 0e 86 bf d9 d0 fb be e6 bf 82 bf
       0.61362946 -1.0473312 -0.49182776 -1.0214813
000070 32 df 13 3f 36 78 02 bd 29 43 82 bf ca 87 ac 3f
       0.57762444 -0.031852923 -1.0176746 1.347894
000080 e4 de 9c bf e3 64 f7 be 8a 7a 10 3f f0 9b 3d bf
       -1.2255521 -0.48319158 0.5643698 -0.74066067
000090 7d 9c 3d bf 7a b8 73 bf 0f 01 36 3e 54 b0 7a 3c
       -0.7406691 -0.95203364 0.17773841 0.015300829
0000a0 22 f4 16 bf 36 4b b4 3f 50 6c 75 bf d9 2f 30 bf
       -0.5896627 1.4085453 -0.95868397 -0.6882301
0000b0 c6 48 fb 3e 54 ca 85 be 06 8f ea be db 9a 5f bf
       0.4907896 -0.26130927 -0.45812243 -0.87345666
0000c0 75 df 11 3f 6d 23 0a bf 72 02 93 be 28 a3 9a 3e
       0.56981593 -0.53960305 -0.28712803 0.30202603
0000d0 6f bc 21 be 34 55 d1 bd a8 c0 05 bf 51 60 ae 3e
       -0.15794538 -0.10221329 -0.52247095 0.3405786
0000e0 9b 9d d9 bd 2e 6f b9 3e 9c e2 87 3f 8a 27 87 be
       -0.10625764 0.36217636 1.0616031 -0.26397353
0000f0 02 0c 30 3e ca 2a 53 3f e1 e8 b6 be 6a 13 59 bf
       0.1719208 0.82487166 -0.35724548 -0.8479525
000100 ce 73 89 3e 5e fd 9b 3e 3f a9 f2 3c f0 82 0e be
       0.26846164 0.3046674 0.029621718 -0.13917136
000110 f8 89 01 3f f5 50 bb be 23 4c 8f bd 66 2f a0 3f
       0.5060115 -0.36585203 -0.06996944 1.2514465
000120 ae 2d fe be 8c f0 26 bf 2c 93 12 3f 9e 0a ec be
       -0.49644226 -0.65210795 0.57255816 -0.4610185
000130 8a 1a 4c bf fd a8 85 bf d4 bf 04 3f f0 f0 8a bf
       -0.79727995 -1.0442196 0.51855206 -1.0854778
000140 4d 7b 5b be 5b f8 f2 3f 2b c4 29 bf ad 92 34 bf
       -0.21433754 1.8982042 -0.66314954 -0.7053631
000150 51 dc 20 3f d4 eb 54 be 28 ad d7 be 62 53 ac be
       0.62836176 -0.20793086 -0.42124295 -0.33657366
000160 c2 6a cc bd d2 33 2b bf 66 d1 2d bf 12 9c e6 3f
       -0.099813 -0.66875947 -0.6789764 1.8016379
000170 26 94 c0 bf 82 59 c8 bf 52 9b 0a 3f b2 37 fe be
       -1.5045211 -1.5652316 0.5414325 -0.49651867
000180 c1 f9 01 bf c3 6c 7c bf 49 f6 56 be ac 79 ff be
       -0.5077172 -0.9860346 -0.20992388 -0.49897516
000190 cf 02 02 40 e2 9e df bf ad 0f 2c 40 0f 20 36 3d
       2.0314214 -1.7470362 2.6884568 0.044464167
0001a0 cb a5 1d bf 18 2d fe 3e 02 07 bb 3e a3 4e 89 3e
       -0.61581105 0.4964378 0.36528784 0.26817808
0001b0 c3 eb 3a 3f 7f ff 62 3e be 42 7b 3f a6 7f 7e 3e
       0.73015994 0.22167777 0.98148715 0.24853382
0001c0 f9 43 7e 3e bd 5b 32 be 2f 34 a5 3e a3 ce 05 3f
       0.24830617 -0.17417808 0.32266375 0.5226843
0001d0 0c 6a fa be de 8d 22 bf 00 4b ef 3e be 6b 19 be
       -0.48909032 -0.6349772 0.46736908 -0.14982507
0001e0 f9 ba 54 c0 fa 02 ad 3f 0e 01 03 c0 e3 2e 8c bf
       -3.323912 1.3516533 -2.0469394 -1.0951809
0001f0 b9 26 46 3f ec 38 a7 bf 09 98 38 bf 59 39 60 bf
       0.77402836 -1.3064246 -0.7210699 -0.87587506
000200 80 50 85 3f 8b 8f 50 bf df ca 7b 3e 4b 88 c3 3f
       1.0415192 -0.8146903 0.24589108 1.5275968
000210 83 f8 ca be a3 21 e1 bf 71 d7 01 be a7 81 26 3e
       -0.39642724 -1.758839 -0.1267984 0.16260396
000220 67 93 dc bf 2e c4 f7 be 06 53 9c 3e 95 df df bd
       -1.7232484 -0.4839186 0.30532092 -0.10931317
000230 aa 55 8d be 29 18 e2 3f 44 de b9 bf 94 53 de be
       -0.2760442 1.7663623 -1.4520955 -0.4342314
000240 c4 03 47 3e 83 ef 53 bf a4 77 e8 be 91 a9 82 bc
       0.1943503 -0.8278734 -0.4540378 -0.015949996
000250 b6 90 42 3d 34 95 8c bb 6d d4 0e 3e 21 de de 3f
       0.04750129 -0.0042902473 0.13948222 1.7411538
000260 f6 64 88 bd 4b 2c 50 bf 8e ad 66 3f df 37 14 3f
       -0.06659882 -0.81317586 0.90108573 0.5789775
000270 10 1e ed be 5b ef 9d bf f4 8e 84 3f fc 14 25 bf
       -0.46311998 -1.233867 1.0356126 -0.64485145
000280 9a ac 00 be b0 fe 04 40 a5 a6 b8 bf 47 d9 d5 bf
       -0.12565842 2.078045 -1.4425856 -1.6706933
000290 ae d1 7f 3e c0 81 83 3e 70 4c f9 3c 92 92 ae 3d
       0.2498233 0.2568493 0.030431956 0.0852405
0002a0 ee b7 cd 3e c2 63 dc 3d b9 8a 94 3d 1f 2f b6 3f
       0.4017939 0.10761215 0.07253022 1.423313
0002b0 1b 0d db bf f5 f8 92 be 8a f3 05 3f d8 39 c4 3d
       -1.7113374 -0.28705564 0.52324736 0.09581345
0002c0 16 5c 92 3d 47 81 7b bf 8d fa 22 3f 28 75 ca be
       0.0714647 -0.98244137 0.6366356 -0.39542508
0002d0 12 78 0b be 66 1a 89 3f a4 3f 7e be 35 26 05 be
       -0.13620022 1.0711181 -0.24828964 -0.13002856
0002e0 53 5b df 3e 8d 81 8e be ce c0 63 bd c3 62 01 be
       0.43624362 -0.27833214 -0.055603795 -0.12635331
0002f0 8a f8 2a 3d f4 09 d0 3c 57 d8 08 bc 12 c5 dc 3f
       0.04174093 0.025395371 -0.008352361 1.7247641
000300 ac 14 9c bf 47 3b 89 bf 49 8e f1 3e 9c 46 95 bd
       -1.2193809 -1.0721215 0.47178867 -0.07288858
000310 62 a4 5b be 3d 5b 88 bd 73 10 84 3e bd 49 2e bd
       -0.21449426 -0.06658027 0.257938 -0.04255079
000320 85 72 1c 3f 7d d3 88 bf c4 a5 a3 3f e3 f6 32 3f
       0.6111224 -1.0689541 1.2784963 0.6990797
000330 70 a1 22 bf bf e6 1c 3f 1d 5a 3f 3f 19 fd 52 3f
       -0.63527584 0.6128959 0.74746877 0.82417446
000340 78 79 f8 be d1 bb ef 3e 22 66 80 3f 2e 20 3a be
       -0.48530173 0.4682298 1.0031168 -0.18176338
000350 74 82 22 3f 9a 46 a5 3e 76 bd 23 be 77 a8 c8 bd
       0.63480306 0.32280427 -0.15990242 -0.09797757
000360 7f cd 34 3f 93 8c 5a be 52 8e 5f 3e db b2 e2 3e
       0.7062606 -0.21342687 0.21831635 0.4427708
000370 c9 3f 55 3f bc 70 93 bf fe 83 d3 3f cf 86 c9 3e
       0.83300453 -1.1518779 1.6524656 0.39360663
000380 e3 db db be 22 5e 38 3f 73 76 be 3d b5 e4 18 3f
       -0.42941198 0.72018635 0.09299936 0.5972398
000390 59 21 4d bf 14 1c 17 3e a6 b7 71 3e 73 be 90 be
       -0.8012901 0.14756805 0.23605213 -0.282703
0003a0 2e 9e c4 3d e0 f3 9e 3e bd 61 08 be 25 eb 87 3e
       0.09600483 0.31045437 -0.13318534 0.2654659
0003b0 c3 a9 2a 3f ba ff bf 3e 23 bb 1b bf 80 88 1b 3f
       0.66665286 0.3749979 -0.6083242 0.6075516
0003c0 19 15 12 bf 4d 06 35 3f 8f 7e bd be c6 a1 44 bf
       -0.5706344 0.7071274 -0.3701062 -0.76809347
0003d0 dc 1a 4c 3f ec 46 8c be 91 73 10 bf a8 88 bb be
       0.79728484 -0.2739786 -0.5642634 -0.36627698
0003e0 51 4c c8 3e a1 87 2a bf ee eb 00 3f fe fa 28 be
       0.39120725 -0.66613203 0.5036 -0.16501996
0003f0 ad 4a 1d 3f 8c 6d 5c 3f bf 17 21 bf 9c 03 87 bc
       0.6144207 0.86104655 -0.6292686 -0.016481213

lstm.bias_ih_l0 f4 [40]
000000 35 98 fb be 73 c3 8d be 68 2b ee 3f d7 e2 23 3f
       -0.49139562 -0.27688178 1.8606997 0.64018005
000010 05 d4 9a bc e5 3c 30 40 2e 68 f8 3f 61 46 cd 3f
       -0.018899927 2.7537167 1.9406793 1.6037103
000020 69 dc 55 bc ad 98 e6 be d4 39 f8 bf 86 22 87 be
       -0.013053038 -0.45038357 -1.9392648 -0.26393527
000030 2d 33 d6 3f 2b 46 98 3e 83 9d f7 3d e9 2d 85 3c
       1.6734368 0.29741034 0.1209059 0.016257243
000040 67 c8 03 3e b0 ae a8 bd e1 5e d1 3c b2 1e a2 3e
       0.12869416 -0.08236444 0.025557937 0.31664044
000050 9c 80 c6 bf 2d a7 43 3f ef de 1e bf 39 e7 07 bf
       -1.5507998 0.76426965 -0.6205892 -0.5308719
000060 58 08 21 3f 97 fd b6 bf 89 df 8d bf a7 13 85 bf
       0.62903357 -1.429614 -1.1083843 -1.0396622
000070 e8 ac 22 3e ee e7 5b bf 8b d1 aa 3f 85 49 49 c0
       0.15886271 -0.8590077 1.3345197 -3.1451123
000080 30 8e d2 40 e9 fd 9b c0 8c 9b 98 c0 48 1b c1 3f
       6.579857 -4.874745 -4.7689877 1.508645
000090 e3 d8 ed c0 7b 48 cc c0 3f 58 28 c0 44 06 d8 c0
       -7.4327254 -6.3838477 -2.630386 -6.750765

lstm.bias_hh_l0 f4 [40]
000000 93 9a 13 be 7a 7c 30 be d8 4a 9f 3f 42 92 6e 3f
       -0.14414434 -0.17234984 1.2444715 0.9319192
000010 d2 b7 1d 3e 58 28 30 40 46 cb 11 40 1e ce a8 3f
       0.15402153 2.7524624 2.2780318 1.3187902
000020 03 c8 36 be 7c 4c 05 bf ac b2 05 c0 f6 50 59 3e
       -0.17849736 -0.5206983 -2.0890303 0.2122229
000030 9f 0e bb 3f fe 64 fa 3d 4b c0 3e 3e 4b 4c 91 3e
       1.4613837 0.12226294 0.18628041 0.2837852
000040 8f 51 3a 3e 28 fe 15 be ef 1b 12 3e 4c a0 d2 3d
       0.18195175 -0.14647734 0.14268468 0.102844805
000050 2a ea b3 bf 81 27 32 3f 82 32 43 bf 67 b4 69 bf
       -1.4055836 0.6959153 -0.76248944 -0.912909
000060 16 3e 43 3f 51 9f a1 bf f1 1b cb bf e4 e0 aa bf
       0.7626661 -1.2626745 -1.5867902 -1.3349881
000070 ee 3c 37 3e 6d fa 9a bf 7e 10 bd 3f c5 fe 39 c0
       0.17894337 -1.2107674 1.4770658 -2.906175
000080 a9 20 d0 40 04 f9 a4 c0 a5 35 8e c0 bc 6b c0 3f
       6.503987 -5.1553974 -4.4440484 1.5032878
000090 9d 92 df c0 42 80 bd c0 bd 04 3f c0 3d ba e2 c0
       -6.986647 -5.9219065 -2.9846642 -7.085234

fc.weight f4 [1, 10]
000000 8a 02 2a c1 7c 9b 13 41 04 b8 28 41 47 db 13 c1
       -10.62562 9.22546 10.544926 -9.2410345
000010 bc 9b e7 40 57 ea b0 40 ae 37 41 c1 65 56 09 c1
       7.2377605 5.528606 -12.076094 -8.583592
000020 da 34 b2 40 fa 7b 1d c1
       5.5689516 -9.842768
