model_params.pkl (torch, 3455 bytes, 5 tensors)

lstm.weight_ih_l0 f4 [24, 6]
0	0x3fe9f4ea	1.8277867
1	0x3f820b8a	1.0159771
2	0x3f901dd3	1.1259102
3	0x3f186cff	0.59541315
4	0x3f423c9c	0.7587373
5	0x3f8397a9	1.0280658
6	0xbed9331a	-0.424218
7	0x3ce28f04	0.027656086
8	0xbebe8861	-0.37213424
9	0x3f982290	1.1885548
10	0x3d4be0ca	0.049774922
11	0x3eb77072	0.35827976
12	0x3f74b32b	0.9558589
13	0x3e95156f	0.29117915
14	0xbf3d3e45	-0.7392314
15	0x3ef57050	0.4793725
16	0x3d000928	0.031258732
17	0x3f66db3c	0.90178275
18	0x3fb4d7f8	1.4128408
19	0x3f889fe2	1.0673792
20	0xbe1fd453	-0.15608339
21	0x3edd17d0	0.4318223
22	0x3f3a6ec4	0.72825265
23	0x3eb55c87	0.35422155
24	0xbf06b1c4	-0.52615
25	0x3ff7eda5	1.9369398
26	0xbe279893	-0.16366796
27	0x3e74f8a4	0.23922974
28	0x3f6a11c9	0.9143339
29	0x3f426362	0.75932896
30	0xbeb2453d	-0.3481845
31	0x3b7bea36	0.003843916
32	0x3eb03919	0.34418562
33	0x3e33f3f7	0.17573534
34	0x3d81e070	0.06341636
35	0x4056e4ae	3.3577075
36	0x3f4770b2	0.77906334
37	0x3ed35798	0.41277766
38	0x3f4a74c8	0.79084444
39	0x3f40eb17	0.7535872
40	0x3f082a94	0.5318997
41	0x3f05d8ef	0.5228414
42	0x3e48c9f8	0.19608295
43	0x3e3dae33	0.18523483
44	0xbe6ffe62	-0.23436883
45	0x3d9866d7	0.0744149
46	0x3fc10168	1.5078554
47	0x3fe10118	1.7578459
48	0x3e722a77	0.23649012
49	0x3e0cb55d	0.1374106
50	0xbd0e9af2	-0.034815736
51	0x3ed4728b	0.4149364
52	0x3e64ac01	0.2233124
53	0x3f58178f	0.8441095
54	0x3f24ac74	0.6432564
55	0xbc8c1a5d	-0.017102415
56	0x3f6a54a1	0.91535383
57	0x3eb272bb	0.34853157
58	0x3f8f1cdb	1.1180681
59	0x3f6975dc	0.91195464
60	0x3ee147fb	0.4400023
61	0x3e809525	0.25113788
62	0xbf50b2f1	-0.8152304
63	0xbf1c8687	-0.6114277
64	0x3f8388b7	1.0276097
65	0x3fbac9fe	1.4592893
66	0xbf89b014	-1.075686
67	0xbf84eedb	-1.0385393
68	0xbf3fa0ab	-0.74854535
69	0x3df19921	0.11796785
70	0xbe020562	-0.12697366
71	0xbd07a2c8	-0.033114225
72	0xbf87dc37	-1.0614079
73	0xbef6859f	-0.4814882
74	0xbf50cc15	-0.81561404
75	0xbeb84680	-0.35991287
76	0xbe004567	-0.12526475
77	0xbedddef2	-0.43334156
78	0x3fcfc05f	1.6230582
79	0x3f451e3e	0.7699927
80	0x3f5914e3	0.84797496
81	0x3e8e43e9	0.27786186
82	0x3ec3ce4a	0.38243324
83	0x3f1f503d	0.6223181
84	0xbe105556	-0.14095053
85	0x3e876558	0.26444507
86	0x3eed4b25	0.46346393
87	0x3f164421	0.58697706
88	0xbcf75b8e	-0.030195024
89	0x3dfed46a	0.124428585
90	0xbf4eb4d8	-0.80744696
91	0xbf0a43cf	-0.5400972
92	0xbe21437a	-0.15748397
93	0xbeb246f6	-0.34819764
94	0xbe4b0595	-0.19826348
95	0xbed37239	-0.41298082
96	0x3fb1c53c	1.3888316
97	0x3ee48212	0.44630486
98	0x3f28bee3	0.6591627
99	0x3f868010	1.0507832
100	0x3fbca359	1.473735
101	0x3fa394fa	1.2779839
102	0xbf2bf0e6	-0.67164457
103	0xbeb9b2c9	-0.36269215
104	0xbead6fc1	-0.33874324
105	0x3d187b7e	0.037227146
106	0xbe592966	-0.21207199
107	0xc007274c	-2.1117735
108	0xbdde7026	-0.10861234
109	0x3df39c10	0.11895001
110	0x3ac82d44	0.0015272279
111	0x3d1f2b25	0.038859505
112	0x3e0f31e1	0.13983871
113	0xbf5d9563	-0.8655607
114	0x3cdfa200	0.027298927
115	0xbd613e1c	-0.054990873
116	0xbc471bf7	-0.012152663
117	0xbd4b6e89	-0.04966596
118	0xbdb6bec5	-0.08923105
119	0x3ed952cb	0.4244598
120	0xbdac1830	-0.08403051
121	0xbde03a24	-0.109485894
122	0xbd3e5498	-0.046467394
123	0xbdb30c46	-0.08742575
124	0xbe14c52c	-0.1452834
125	0x3e98963e	0.29802126
126	0xbb7fedc4	-0.0039051631
127	0xbd530e3b	-0.051527243
128	0xbb8a7fd4	-0.004226664
129	0xbcf0d142	-0.029396657
130	0xbd32afc8	-0.04362467
131	0x3efb3c5a	0.49069482
132	0x3db10ea4	0.086453706
133	0xbdaaeeb7	-0.083463125
134	0x3c44975a	0.011998976
135	0xbda27c7c	-0.079339
136	0xbd33bd1e	-0.043881528
137	0x3f2d91aa	0.6780039
138	0x3d30a162	0.043122657
139	0xbdc9dd23	-0.098566316
140	0x3d2ab7c6	0.041679166
141	0xbd00ce50	-0.031446755
142	0xbd85c13c	-0.06530997
143	0x3efdfc49	0.4960654

lstm.weight_hh_l0 f4 [24, 6]
0	0xbfba6edc	-1.4565082
1	0x3f9c3e8f	1.2206591
2	0x3f1bb26a	0.60819113
3	0xbf8e2dea	-1.1107762
4	0x3e9505d6	0.29106015
5	0xbfe0a7d8	-1.7551222
6	0x3ff0a283	1.8799595
7	0xbeec327c	-0.46132267
8	0x3eed2410	0.46316576
9	0x3fd2d296	1.6470516
10	0xbf01a9cf	-0.5064973
11	0xbd2f177c	-0.042747006
12	0xbe4aa3bf	-0.19789027
13	0x3f5ebab4	0.87003636
14	0x3ecaa98b	0.39582476
15	0xbe943900	-0.28949738
16	0x3f289d4f	0.65865034
17	0xbf3f99b8	-0.7484393
18	0x3ef7b5f7	0.48381016
19	0xbde0a74f	-0.109694116
20	0x3e50394c	0.20334357
21	0x3de05ba3	0.10954978
22	0xbd9c75b7	-0.0763964
23	0xbecf466a	-0.4048341
24	0x3cbf0102	0.02331591
25	0x3db1f337	0.08688968
26	0x3e80756b	0.25089583
27	0x3edcf5c5	0.43156257
28	0xbe8c2528	-0.27372098
29	0xbfc36c8a	-1.5267498
30	0x3f445108	0.76686144
31	0xbe32bdf2	-0.17455271
32	0x3e8c906b	0.27453932
33	0x3e0cda4e	0.13755152
34	0xbf3adbb9	-0.7299152
35	0x3facef1e	1.3510473
36	0xc0446b76	-3.069059
37	0x403a0216	2.9063773
38	0x3c74b0b9	0.014934712
39	0xc00c5172	-2.192471
40	0x3fa2ae39	1.2709419
41	0xc0ce39a1	-6.444535
42	0x4046bb65	3.1051877
43	0xbf0a84f5	-0.54109126
44	0x3f0dd946	0.5540966
45	0x3f5ee7fb	0.87072724
46	0xbf3d0033	-0.7382843
47	0x3ff14301	1.8848573
48	0xbd93cd78	-0.072169244
49	0x3fa59378	1.2935629
50	0xbe4ecf66	-0.20196304
51	0xbf7888d8	-0.97083807
52	0x3f25d7a8	0.6478219
53	0xbf1c6c53	-0.6110279
54	0x3f551c1a	0.83246005
55	0x3eb54f53	0.35412082
56	0x3dc7d740	0.097578526
57	0xba587c40	-0.0008258261
58	0x3e332bc1	0.1749716
59	0xbfc3600d	-1.5263687
60	0xbf30068e	-0.6876
61	0xbe0eecc5	-0.13957508
62	0x3e899fa0	0.26879597
63	0xbf6e73a6	-0.93145216
64	0xbf53391e	-0.8250903
65	0xbf3fdc75	-0.74945766
66	0x4012c9b8	2.293562
67	0xbf83dc61	-1.0301629
68	0x3e8d96c4	0.27654088
69	0xbf01922a	-0.50613654
70	0xc00bfed0	-2.1874275
71	0x4026c851	2.6059763
72	0x3f3f5b2c	0.7474849
73	0xbf7d2eed	-0.9889973
74	0x3e65b080	0.2243061
75	0x3f2f426b	0.6846072
76	0x3db24590	0.08704674
77	0x3fabcf50	1.3422642
78	0xbe3bceb7	-0.18340574
79	0x3f3aee5b	0.7301995
80	0x3ee85749	0.45379093
81	0xbcfb2099	-0.030655192
82	0x3dbcc25c	0.092167586
83	0xbfac93cb	-1.3482603
84	0xbea94828	-0.33062863
85	0x3f7ecccc	0.99531245
86	0x3e09e3c8	0.13465798
87	0xbec50bd3	-0.38485584
88	0x3dda8a26	0.10670881
89	0xbf9f0860	-1.2424431
90	0xbd81d4a1	-0.06339384
91	0xbe27c489	-0.16383566
92	0xbeab60b2	-0.3347221
93	0x3e95ab0c	0.2923206
94	0xbef569e5	-0.47932354
95	0x3eef3aff	0.46724698
96	0xbf2815aa	-0.65658057
97	0xbe885a1c	-0.26631248
98	0x3d9ad281	0.07559682
99	0x3efe2e36	0.4964463
100	0xbe058d7f	-0.13042258
101	0xbf65c9c0	-0.8976097
102	0xbf8c356c	-1.0953803
103	0x3e5c7c3c	0.21531767
104	0x3e014f58	0.12627923
105	0xbe145a78	-0.14487636
106	0xbf0e44cb	-0.5557372
107	0x3d5ca579	0.053868745
108	0x3ef25c15	0.47335878
109	0x3d5580f6	0.05212494
110	0x3edbe125	0.4294521
111	0x3e87328f	0.2640576
112	0x3ccaf79a	0.024776269
113	0xbe2a8f0e	-0.16656134
114	0x3f05be3f	0.5224342
115	0xbf1156a8	-0.5677285
116	0xbdcce24c	-0.100041
117	0xbc8b7c45	-0.01702703
118	0xbe23cf75	-0.15997107
119	0x3f8a4ccb	1.0804685
120	0x3fdb0bd4	1.7112985
121	0xbf387d51	-0.7206622
122	0xbee3f8aa	-0.44525653
123	0x3ca275ab	0.0198315
124	0xbf4e636a	-0.80620444
125	0x40249b38	2.5719738
126	0x3f854765	1.0412413
127	0x3f149278	0.58035994
128	0x3e94dc5e	0.29074377
129	0x3ef06929	0.4695523
130	0xbe66b247	-0.22528945
131	0x3fc43630	1.5329037
132	0x3ed9beda	0.4252842
133	0x3e53771e	0.20650908
134	0xbd08c644	-0.033392206
135	0xbdc4bca5	-0.096062936
136	0xbed2b473	-0.41153297
137	0x3ea8f727	0.33001062
138	0xbe24b95f	-0.16086338
139	0x3e076271	0.13221146
140	0x3d804361	0.062628515
141	0x3c90137a	0.017587412
142	0x3e4b8285	0.19874008
143	0xbeb8af1e	-0.36071104

lstm.bias_ih_l0 f4 [24]
0	0x40c60faa	6.189412
1	0xbe8e0306	-0.27736682
2	0x3f48fbc3	0.7850916
3	0x3f890467	1.0704468
4	0x3f59b4de	0.85041606
5	0xbfca474f	-1.5803012
6	0x404a01eb	3.156367
7	0xc050e164	-3.2637568
8	0xbe8b6444	-0.27224934
9	0x3efb3e4b	0.49070963
10	0x3f4333b6	0.7625078
11	0xc01c6181	-2.4434512
12	0xc06ef6b5	-3.7338078
13	0x3fd092bf	1.6294783
14	0x3f67e199	0.9057861
15	0xbfbc08e6	-1.4690216
16	0x3f7768cb	0.96644276
17	0x3e845a0f	0.2584996
18	0x40ba0432	5.813012
19	0xc0ede405	-7.4340844
20	0xc1025bcd	-8.147412
21	0xc0e910c8	-7.2832985
22	0xc0f5b0ba	-7.677823
23	0xc0024bae	-2.0358691

lstm.bias_hh_l0 f4 [24]
0	0x40bbc76a	5.8680925
1	0x3da2d287	0.07950311
2	0x3f08007f	0.53125757
3	0x3f2add30	0.66743755
4	0x3f43ff67	0.7656159
5	0xbfd40c98	-1.6566343
6	0x406a016b	3.6563365
7	0xc0542054	-3.3144732
8	0xbec00a7b	-0.37507996
9	0x3ec32ed0	0.38121653
10	0x3e0bc607	0.1364976
11	0xbfff1497	-1.9928159
12	0xc05656bc	-3.3490438
13	0x3f9a53ff	1.2056884
14	0x3f99a083	1.2002109
15	0xbf9141f1	-1.1348249
16	0x3f2576ad	0.6463421
17	0x3bfe80f9	0.0077668396
18	0x40c62fba	6.193326
19	0xc0e53c96	-7.1636457
20	0xc0f126d7	-7.535991
21	0xc0fe850a	-7.95374
22	0xc0ee5897	-7.448314
23	0xbfaa254f	-1.3292636

fc.weight f4 [1, 6]
0	0x41181203	9.504397
1	0x41703460	15.012787
2	0x41391c80	11.569458
3	0xc185c6a5	-16.721994
4	0x4135d1cc	11.36372
5	0xc18525ee	-16.64352
